…
_tumor_prostate_focal_eval', 'models_dir': 'results/task_1_tumor_prostate_focal_s1', 'model_type': 'clam_sb', 'drop_out': True, 'model_size': 'small'}
label column: label
label dictionary: {'normal_tissue': 0, 'tumor_tissue': 1}
number of classes: 2
slide-level counts:  
 0    291
1     74
Name: label, dtype: int64
Patient-LVL; Number of samples registered in class 0: 257
Slide-LVL; Number of samples registered in class 0: 291
Patient-LVL; Number of samples registered in class 1: 68
Slide-LVL; Number of samples registered in class 1: 74
Init Model
CLAM_SB(
  (attention_net): Sequential(
    (0): Linear(in_features=1024, out_features=512, bias=True)
    (1): ReLU()
    (2): Dropout(p=0.25, inplace=False)
    (3): Attn_Net_Gated(
      (attention_a): Sequential(
        (0): Linear(in_features=512, out_features=256, bias=True)
        (1): Tanh()
        (2): Dropout(p=0.25, inplace=False)
      )
      (attention_b): Sequential(
        (0): Linear(in_features=512, out_features=256, bias=True)
        (1): Sigmoid()
        (2): Dropout(p=0.25, inplace=False)
      )
      (attention_c): Linear(in_features=256, out_features=1, bias=True)
    )
  )
  (classifiers): Linear(in_features=512, out_features=2, bias=True)
  (instance_classifiers): ModuleList(
    (0-1): 2 x Linear(in_features=512, out_features=2, bias=True)
  )
  (instance_loss_fn): CrossEntropyLoss()
)
Total number of parameters: 790791
Total number of trainable parameters: 790791
Init Loaders
matthews coefficient: 0.3329001514305916, f1-score: 0.4444444444444445, balanced accuracy: 0.6523809523809524
[[19  2]
 [ 3  2]]
test_error:  0.19230769230769232
auc:  0.6761904761904762
Init Model
CLAM_SB(
  (attention_net): Sequential(
    (0): Linear(in_features=1024, out_features=512, bias=True)
    (1): ReLU()
    (2): Dropout(p=0.25, inplace=False)
    (3): Attn_Net_Gated(
      (attention_a): Sequential(
        (0): Linear(in_features=512, out_features=256, bias=True)
        (1): Tanh()
        (2): Dropout(p=0.25, inplace=False)
      )
      (attention_b): Sequential(
        (0): Linear(in_features=512, out_features=256, bias=True)
        (1): Sigmoid()
        (2): Dropout(p=0.25, inplace=False)
      )
      (attention_c): Linear(in_features=256, out_features=1, bias=True)
    )
  )
  (classifiers): Linear(in_features=512, out_features=2, bias=True)
  (instance_classifiers): ModuleList(
    (0-1): 2 x Linear(in_features=512, out_features=2, bias=True)
  )
  (instance_loss_fn): CrossEntropyLoss()
)
Total number of parameters: 790791
Total number of trainable parameters: 790791
Init Loaders
matthews coefficient: 0.3329001514305916, f1-score: 0.4444444444444445, balanced accuracy: 0.6523809523809524
[[19  2]
 [ 3  2]]
test_error:  0.19230769230769232
auc:  0.7333333333333334
Init Model
CLAM_SB(
  (attention_net): Sequential(
    (0): Linear(in_features=1024, out_features=512, bias=True)
    (1): ReLU()
    (2): Dropout(p=0.25, inplace=False)
    (3): Attn_Net_Gated(
      (attention_a): Sequential(
        (0): Linear(in_features=512, out_features=256, bias=True)
        (1): Tanh()
        (2): Dropout(p=0.25, inplace=False)
      )
      (attention_b): Sequential(
        (0): Linear(in_features=512, out_features=256, bias=True)
        (1): Sigmoid()
        (2): Dropout(p=0.25, inplace=False)
      )
      (attention_c): Linear(in_features=256, out_features=1, bias=True)
    )
  )
  (classifiers): Linear(in_features=512, out_features=2, bias=True)
  (instance_classifiers): ModuleList(
    (0-1): 2 x Linear(in_features=512, out_features=2, bias=True)
  )
  (instance_loss_fn): CrossEntropyLoss()
)
Total number of parameters: 790791
Total number of trainable parameters: 790791
Init Loaders
matthews coefficient: 0.4346928823909822, f1-score: 0.5, balanced accuracy: 0.6761904761904762
[[20  1]
 [ 3  2]]
test_error:  0.15384615384615385
auc:  0.6380952380952382
Init Model
CLAM_SB(
  (attention_net): Sequential(
    (0): Linear(in_features=1024, out_features=512, bias=True)
    (1): ReLU()
    (2): Dropout(p=0.25, inplace=False)
    (3): Attn_Net_Gated(
      (attention_a): Sequential(
        (0): Linear(in_features=512, out_features=256, bias=True)
        (1): Tanh()
        (2): Dropout(p=0.25, inplace=False)
      )
      (attention_b): Sequential(
        (0): Linear(in_features=512, out_features=256, bias=True)
        (1): Sigmoid()
        (2): Dropout(p=0.25, inplace=False)
      )
      (attention_c): Linear(in_features=256, out_features=1, bias=True)
    )
  )
  (classifiers): Linear(in_features=512, out_features=2, bias=True)
  (instance_classifiers): ModuleList(
    (0-1): 2 x Linear(in_features=512, out_features=2, bias=True)
  )
  (instance_loss_fn): CrossEntropyLoss()
)
Total number of parameters: 790791
Total number of trainable parameters: 790791
Init Loaders
matthews coefficient: 0.0, f1-score: 0.0, balanced accuracy: 0.5
[[21  0]
 [ 5  0]]
test_error:  0.19230769230769232
auc:  0.6476190476190476
Init Model
CLAM_SB(
  (attention_net): Sequential(
    (0): Linear(in_features=1024, out_features=512, bias=True)
    (1): ReLU()
    (2): Dropout(p=0.25, inplace=False)
    (3): Attn_Net_Gated(
      (attention_a): Sequential(
        (0): Linear(in_features=512, out_features=256, bias=True)
        (1): Tanh()
        (2): Dropout(p=0.25, inplace=False)
      )
      (attention_b): Sequential(
        (0): Linear(in_features=512, out_features=256, bias=True)
        (1): Sigmoid()
        (2): Dropout(p=0.25, inplace=False)
      )
      (attention_c): Linear(in_features=256, out_features=1, bias=True)
    )
  )
  (classifiers): Linear(in_features=512, out_features=2, bias=True)
  (instance_classifiers): ModuleList(
    (0-1): 2 x Linear(in_features=512, out_features=2, bias=True)
  )
  (instance_loss_fn): CrossEntropyLoss()
)
Total number of parameters: 790791
Total number of trainable parameters: 790791
Init Loaders
matthews coefficient: 0.4098780306383839, f1-score: 0.33333333333333337, balanced accuracy: 0.6
[[21  0]
 [ 4  1]]
…
